name: "Fofe"
layers {
  name: "input"
  type: MEMORY_DATA
  top: "data"
  top: "label"
  memory_data_param {
    batch_size: 250
    channels: 1
    height: 1
    width: 80002
  }
# include: { phase: TRAIN }
}
layers {
  name: "proj1"
  type: INNER_PRODUCT
  bottom: "data"
  top: "proj1"
  blobs_lr: 1
  blobs_lr: 2
  inner_product_param {
    num_output: 200
    weight_filler {
      type: "xavier"
    }
    bias_filler {
      type: "constant"
    }
  }
}
layers {
  name: "ip1"
  type: INNER_PRODUCT
  bottom: "proj1"
  top: "ip1"
  blobs_lr: 1
  blobs_lr: 2
  inner_product_param {
    num_output: 400
    weight_filler {
      type: "xavier"
    }
    bias_filler {
      type: "constant"
    }
  }
}
layers {
  name: "relu1"
  type: RELU
  bottom: "ip1"
  top: "ip1"
}
layers {
  name: "ip2"
  type: INNER_PRODUCT
  bottom: "ip1"
  top: "ip2"
  blobs_lr: 1
  blobs_lr: 2
  inner_product_param {
    num_output: 400
    weight_filler {
      type: "xavier"
    }
    bias_filler {
      type: "constant"
    }
  }
}
layers {
  name: "relu2"
  type: RELU
  bottom: "ip2"
  top: "ip2"
}
layers {
  name: "ip3"
  type: INNER_PRODUCT
  bottom: "ip2"
  top: "ip3"
  blobs_lr: 1
  blobs_lr: 2
  inner_product_param {
    num_output: 80001
    weight_filler {
      type: "xavier"
    }
    bias_filler {
      type: "constant"
    }
  }
}
layers {
  name: "accuracy"
  type: ACCURACY
  bottom: "ip3"
  bottom: "label"
  top: "accuracy" 
}
layers {
  name: "loss"
  type: SOFTMAX_LOSS
  bottom: "ip3"
  bottom: "label"
  top: "loss"
}
